…
    Local Batch size   : 50
    Local Epochs       : 5

CNNMnist(
  (conv1): Conv2d(1, 32, kernel_size=(5, 5), stride=(1, 1), padding=(2, 2))
  (conv2): Conv2d(32, 64, kernel_size=(5, 5), stride=(1, 
1), padding=(2, 2))
  (conv2_drop): Dropout2d(p=0.5, inplace=False)
  (fc1): Linear(in_features=3136, out_features=512, bias=True)
  (fc2): Linear(in_features=512, out_features=10, bias=True)
)
----------------------------------------------------------------
        Layer (type)               Output Shape         Param #
================================================================
            Conv2d-1           [-1, 32, 28, 28]             832
            Conv2d-2           [-1, 64, 14, 14]          51,264
         Dropout2d-3           [-1, 64, 14, 14]               0
            Linear-4                  [-1, 512]       1,606,144
            Linear-5                   [-1, 10]           5,130
================================================================
Total params: 1,663,370
Trainable params: 1,663,370
Non-trainable params: 0
----------------------------------------------------------------
Input size (MB): 0.00
Forward/backward pass size (MB): 0.39
Params size (MB): 6.35
Estimated Total Size (MB): 6.74
----------------------------------------------------------------
selected users: [15  8 22 29 20 21  5 18 16 28 11  7 25  
…
